model.pth (torch, 181788 bytes, 10 tensors)

weight f4 [6, 1, 5, 5]
00000000: fedb a4bd 050b e33d ae16 403e b749 a23c
00000010: 4104 2f3d a2c9 bb3d 6c82 603d 83f6 c63c
00000020: 2d38 ddbd 6ee4 afbc 0ba4 a3bd 399f 5e3d
00000030: ae10 053e 5e02 5fbd 09cd 8a3d 615a 523e
00000040: f77d 4d3e 09d9 333d 16f0 dbbb eb63 e23d
00000050: ee88 b9bd 7497 7c3d aaae 203e 404b 0abe
00000060: ab24 05be e131 ae3d 439a dcbd ffdf 8fbd
00000070: 5ad3 16be f2d9 2bbd 82f5 5d3e 73ff b6bd
00000080: 4af7 1bbe 0121 f2bd 59d0 81bd 7e26 32be
00000090: e55f 08be 7125 8fbe 3ae4 613e b169 043e
000000a0: 4b02 2ebe 1af3 4ebe bd89 0f3e 69d2 d4bd
000000b0: a991 213d 53cf 48be 55ce 83bc 5206 9e3d
000000c0: 3d20 d93d 8af0 4b3e 3413 1f3e 0301 033e
000000d0: 1ba5 3d3d c444 cbbd d426 12be 5f32 bebd
000000e0: 02c8 3a3e c764 b13d 1b5a 023e 7f03 5f3e
000000f0: c8a8 5c3e e143 4d3e 8fbe a83d bb34 cfbc
00000100: 1174 653e cfa5 903d 1dbf e93d dd9d 0a3e
00000110: 94dd 32be dbae f4bd d651 0d3e 4734 aabd
00000120: 5025 2b3e a9cc 503b 3d99 19be 6472 60bd
00000130: 7d74 f83c 2dee 1bbe 90f6 1b3d 3552 a8bd
00000140: f597 5d3d ff43 d63c bbf3 f03c ad2a e0bc
00000150: 3857 803c 68e2 a03d cc89 383e efc9 f9ba
00000160: cbba 42be a91f 30be f027 ffbd e64f bb3d
00000170: 52fd c03d 074c 60be d4c5 f83d 0b5e 4b3e
00000180: d690 a73d 8a3b 9cbd d479 37be 2d10 09be
00000190: 87fb 4dbd a88c fd3d 5676 ea3c f59c ccbd
000001a0: 196a b33d c60d 503e 4ba0 13be 801a 343d
000001b0: a624 333d 60af 163e dfaa 20be 0cca 4d3e
000001c0: 7ad2 5d3e cb2c 713e e999 e23d 197d 343d
000001d0: ae46 d93d 3156 413e c67e 1d3e 6e23 ab3d
000001e0: 0209 c7bd 3c4d 103e 2dae 71be 4525 2dbe
000001f0: f63f 8c3d de58 073e e448 1a3e a25d c0bd
00000200: a10e 4fbe 3dc0 9c3d d577 f23d d7bc 29bd
00000210: 8f32 9cbd 70d8 19be 7fd8 9a3d 72e2 92bc
00000220: c073 283d 77bc 58be 4f9b 13be 7382 923d
00000230: d7e3 fe3d 501f e93c b819 63be a181 f53d
00000240: 9348 933d 3051 26be feb1 febc ec5d c33c
00000250: e0e3 133c c947 2b3e
-0.08049773 0.11086086 0.18758652 0.01981054 0.042728666 0.09169318 0.05481188 0.024287468
-0.1080173 -0.021471228 -0.07990273 0.054351065 0.12994644 -0.054445617 0.067773886 0.2054229
0.20067583 0.043908153 -0.00671197 0.11054214 -0.090593204 0.061667874 0.15691629 -0.13505268
-0.13002269 0.085056074 -0.107716106 -0.07025146 -0.14729062 -0.041955896 0.21675685 -0.08935442
-0.15231052 -0.11822701 -0.06338567 -0.17397496 -0.13317831 -0.27958253 0.22059718 0.12930943
-0.16993062 -0.20209923 0.14017387 -0.10391695 0.039445553 -0.19610338 -0.016089598 0.07716049
0.10601852 0.19915977 0.15534669 0.12793355 0.046300035 -0.099252254 -0.14272624 -0.09286951
0.1824036 0.086618 0.12729685 0.21778677 0.2154876 0.20045425 0.08239471 -0.025293699
0.22407557 0.070628755 0.11413405 0.13536783 -0.17467338 -0.119474135 0.13800749 -0.08310752
0.16713452 0.0031860268 -0.14999862 -0.05479659 0.030328983 -0.15227576 0.038076937 -0.08218805
0.054099996 0.02615547 0.029413095 -0.0273641 0.01566659 0.078556836 0.18021315 -0.0019057373
-0.19016568 -0.17199577 -0.12458789 0.09146099 0.09423317 -0.21904002 0.12147108 0.19860093
0.08181922 -0.07628544 -0.17917567 -0.13385077 -0.050288703 0.12380344 0.02862088 -0.09990875
0.08760471 0.20317754 -0.14416616 0.043970585 0.043736123 0.14715338 -0.15690182 0.20096606
0.21662322 0.23552243 0.11064512 0.044064615 0.10609184 0.18880536 0.15380391 0.08356367
-0.09718515 0.14091963 -0.23601599 -0.16908748 0.06848137 0.13217494 0.15066868 -0.09392859
-0.20220424 0.07653854 0.118392624 -0.041439857 -0.07626831 -0.1502397 0.075608246 -0.017930243
0.041126013 -0.21165644 -0.14414714 0.071537875 0.12445801 0.028457314 -0.2217778 0.119876154
0.07191577 -0.16241908 -0.031090733 0.023848496 0.009026498 0.16726603

bias f4 [6]
00000000: 98be 3cbe 0ecb 6ebd 6c49 0a3d a4c4 4ebe
00000010: c5a4 153e cf96 1fbe
-0.18432081 -0.058299117 0.033761427 -0.201922 0.14613636 -0.15584873

weight f4 [16, 6, 5, 5]
00000000: fda6 36bd daff d93c 5236 503d 2a36 9d3d
00000010: b1b8 883d 32c5 163c f2f4 233d edee dbbc
00000020: 689b 06bd 3ee0 243d d6f4 30bd c760 97bc
00000030: eb09 d13c dcec a0bc bc66 bc3b 6e32 403d
00000040: 203d b2bd aa9a 933d 116c 09bd fb71 8fbc
00000050: 3f7e b13c 7531 ba3c 809e a9bd a44f b7bb
00000060: f6dc 3ebd bea4 123d 5c27 2d3d 4d73 363c
00000070: 58c5 603d 6bfc 23bc 5813 25bd da52 9f3d
00000080: c29b afbd 596d 673d c401 333d 8789 e9bc
00000090: 3d08 303d 449b 723c 247f 07bd b152 813c
000000a0: dc83 2bbd d6eb 6f3b 9eaf e13b 322b 553c
000000b0: b35e 0fbd 2cb7 e2bd 7b44 f4bc 471c a43c
000000c0: b94f a7bd eb5f 273d 1075 853c 30d2 603d
000000d0: 6b4b c33c b925 56bc ad41 6dbd 633d 8ebb
000000e0: 79fe d4bd 55b5 bcbd 31dd 46bd fbc1 673d
000000f0: 45f5 603d 08b5 5e3d 71ea 5fbc 83da 423c
00000100: 43ec bdbd 89d5 613d f78a c63c 68c2 40bd
00000110: 670b 9c3c 204a 013d 4fec 8f3d e876 4e3d
00000120: fb9d 463d feb3 943d 960f 4d3d 524c 9d3c
00000130: 2374 f4bd 8428 3dbd c68b 57bc 28f6 34bd
00000140: a31d 0dbd 2710 f2bd 89b7 a7bd 1228 a63d
00000150: 362e 2dbd eb60 3d3d c592 b7bc f9c9 19bb
00000160: ab0f c33c 1c80 9ebc 1c98 8a3c 651f 15bd
00000170: 54bc 03bd f999 d33a 715b 0cbd 2651 b53c
00000180: 4ffe f13c b932 75bd 6e31 803d dd02 58bd
00000190: 67e2 81bd 4b59 46bd 1f09 4fbc b126 d13c
000001a0: f099 fabc 4543 f23c c80a 6a3d 84dd 9fbd
000001b0: 478e a9bd ee0a fdbc 6943 bcbc 6a5c febc
000001c0: bdad 42bd 7607 9b3c 6dbc ccbc 2e8f 283c
000001d0: e2ff 873d 4304 553d f514 e03c cb5e debc
000001e0: 413f cdbd ac2b 083b 1162 b7bc 5524 3c3d
000001f0: 5301 213d c60b b7bd 48f4 783d e3df 4abd
00000200: 4462 c73c 4f98 8abb 0de8 56bb cb7a 50bd
00000210: 5b0b 0b3d 697c acbd 228e 1ebb 638c 473d
00000220: 0909 e43c 9b30 713d 6523 a0bc 97fb c13a
00000230: 86a5 cabd d479 4bbd aa0d 2c3d 64d7 9abd
00000240: 4de8 5cbd 3e80 8cbd 3b2e 47bd a5fb 8dbd
00000250: 7952 b5bc 595a f63c 38f7 be3b f3c0 4dbd
00000260: 9e3b 423d 5c6d e63a f7f9 a23c e996 213d
00000270: 5a94 28bd 787f 83bc 7989 40bd 3c25 63bc
00000280: 1710 5a3b a15a 3fbd 7161 653d 835a f4bc
00000290: 734c 99bd 766e dc3c 8620 2a3d c640 e13c
000002a0: 4fac b1bc 2ea3 0d3d 3c2e 093b 1c7c 9cbd
000002b0: 2796 cebc c559 40bd e93c a0bd 6b5f 85bd
000002c0: ed62 0f3d d26d b2bc 9dff 6bbc 10cc 38bd
000002d0: 2cdf 65bd b8d8 46bc 8a78 af3d 598c 333d
000002e0: e86e b6bd fb1c 703d 4b52 233d 9b34 043e
000002f0: be0b da3c 22d8 743c 252e a3bd b062 7e3d
00000300: 032c 403d dab8 87b9 e1b7 043d b363 88bd
00000310: f65b b93c 07ff 6d3d dba7 6f3d 4833 9c3c
00000320: d4a4 a9bd d339 1abd 10bd 903d 6f01 6ebd
00000330: 824c 27bd 60d0 87bc 665d 613d aded 1fbd
00000340: 2c76 2ebd 7b10 b83d 93a7 01bd 05b0 f5bb
00000350: 4bac 1c3d 0270 ab3c 6b28 76bd e1b6 143d
00000360: 959b 7cbd 5225 89bd 300b 943c 41d9 253d
00000370: d0ce f13c 48a3 8c3c ed9d 563c fe55 a3bd
00000380: 58f6 c9bc 7d72 5ebd 2d52 e33d fb59 993d
00000390: 79ec b63d 3953 c6bc 437d 97bd 9615 fa3c
000003a0: d24a 9e3d 8998 80bc 21b0 8dbd 9184 6a3a
000003b0: 248a 85ba 69c3 a1bd 24d0 083c 7a32 adbd
000003c0: cd70 c6bc ef78 093d 80ba cb3c a23d 7dbc
000003d0: dea6 a7bd 8cc0 dabd 5641 43bd 7b74 1b3d
000003e0: 3ebb 88bd 49ed 093c 15dc 193d 85a3 173d
000003f0: 90e2 ed3c ce27 92bc 5474 92bd d989 03bd
-0.044592846 0.026611257 0.050833054 0.076763466 0.06675852 0.009202288 0.04002852 -0.026847327
-0.03286305 0.040252917 -0.043202244 -0.018478764 0.025517425 -0.019644193 0.0057495516 0.046923093
-0.08703065 0.07207234 -0.033550326 -0.017510405 0.021666644 0.022728661 -0.082821846 -0.0055942107
-0.046597444 0.03580164 0.042273864 0.011135888 0.0548757 -0.010008912 -0.04030165 0.077794746
-0.0857463 0.056500766 0.043702856 -0.028507961 0.042976607 0.014807526 -0.033080235 0.0157865
-0.041873798 0.0036609075 0.0068873903 0.013010787 -0.03500242 -0.110700935 -0.02981781 0.020033015
-0.08169503 0.04086296 0.016291171 0.05488795 0.023839673 -0.013070517 -0.05792396 -0.004340814
-0.10400099 -0.09214274 -0.04855079 0.05658148 0.054921407 0.054371864 -0.013666735 0.011892918
-0.09273579 0.055135284 0.024236185 -0.0470604 0.019048406 0.03156483 0.07027494 0.050406367
0.048490506 0.07260893 0.050063692 0.019201431 -0.11936214 -0.046181217 -0.013155883 -0.044180065
-0.034452092 -0.11819487 -0.081893034 0.081131116 -0.0422804 0.046235006 -0.022408852 -0.0023466332
0.023811182 -0.019348197 0.016918235 -0.036406893 -0.032162026 0.001614391 -0.034266893 0.022133421
0.02954021 -0.059862826 0.06259428 -0.052737106 -0.06342011 -0.048425 -0.012636452 0.025531145
-0.030590981 0.029573092 0.057139188 -0.078059226 -0.082790904 -0.030889 -0.022981362 -0.031049926
-0.04752897 0.018924456 -0.024992192 0.010288043 0.06640603 0.052006017 0.027353743 -0.02714481
-0.1002183 0.0020777984 -0.022385629 0.045933086 0.039307903 -0.089377925 0.06077984 -0.04952992
0.024338849 -0.0042295824 -0.0032792122 -0.050898355 0.033946376 -0.08422167 -0.0024193604 0.048717868
0.02783634 0.058884244 -0.019548127 0.0014799711 -0.09894852 -0.04967673 0.04200522 -0.07560614
-0.053932477 -0.06860398 -0.048628073 -0.06932763 -0.022134053 0.030072378 0.0058278106 -0.05023284
0.047420137 0.0017580199 0.019894583 0.03945056 -0.041157104 -0.016051993 -0.047006104 -0.013863858
0.003327375 -0.04671729 0.05600113 -0.029828316 -0.07485285 0.02690814 0.041534923 0.027496707
-0.021688608 0.03457945 0.00209321 -0.076408595 -0.025218083 -0.04696061 -0.07824118 -0.0651234
0.035006452 -0.021780882 -0.014404205 -0.045116484 -0.056121036 -0.012136631 0.08567913 0.043835018
-0.089078724 0.058621388 0.039873403 0.12910692 0.026616927 0.014944108 -0.07967786 0.062105834
0.046916973 -0.00025886932 0.032401923 -0.06659641 0.022626858 0.05810454 0.05850969 0.019067422
-0.082833916 -0.0376528 0.07067311 -0.058106836 -0.040844448 -0.016578853 0.055020712 -0.039045025
-0.042593166 0.089875184 -0.03165395 -0.00749779 0.03825025 0.020927433 -0.06009714 0.03630722
-0.061671812 -0.066965714 0.01807174 0.040490393 0.029517561 0.017167702 0.013099176 -0.07975386
-0.024653599 -0.054308403 0.11099658 0.074878655 0.08931822 -0.024209606 -0.07396939 0.030527871
0.077291146 -0.015697734 -0.069183595 0.00089461455 -0.0010188264 -0.078986 0.008350406 -0.08456893
-0.02422371 0.033562597 0.024869204 -0.015456589 -0.08186124 -0.10681257 -0.04766973 0.03795288
-0.066763386 0.00841839 0.037563402 0.03702118 0.029038697 -0.017841246 -0.07151094 -0.032113884

bias f4 [16]
00000000: 7f49 1abd b5b3 75bd fd2d 13bb a7e2 753c
00000010: 44a8 5f3c a171 65bd ddf8 043d ad9e a4bd
00000020: 7371 08bc 6127 a6bd b0be 0d3d e17b 0ebd
00000030: 9417 113a e04a 0d3d 978d 6b3c 2734 163d
-0.037667748 -0.059985835 -0.002245783 0.015007651 0.0136509575 -0.056016568 0.032463897 -0.080380775
-0.00832783 -0.0811298 0.034605682 -0.03478611 0.00055348244 0.034495234 0.014377019 0.03667083

weight f4 [120, 256]
00000000: 11e0 30bd 7b73 3fbd 8087 d33c fc01 d5bb
00000010: 1acd 783d e5f5 f8bc 6485 033c e03b da3c
00000020: f285 8e3d 11f1 cabc 4d1f e8bc fb23 0f3d
00000030: 4b58 793d a920 8e3c 7816 14bd 9d97 ebbb
00000040: 0f3c efbd 35ec 25bd 2e89 1cbd ced5 dc3c
00000050: d9ad b7bb 3589 953d dea6 023d 285e e13b
00000060: 2373 813d dd90 edbc cd85 8bbc b8de 81bc
00000070: e66d 243d b2ae 83bd 8c66 27bc 9534 babc
00000080: d3bb 16bd d382 1fbd afbc d53b bb9b 1c3d
00000090: 28a6 413c 3e45 12bd 763f 0bbd 3695 ad3c
000000a0: cef4 07bd 4337 033c a8d5 58bd 6e4e 143d
000000b0: bed5 553d 6172 faba 439b 593d d81c 463d
000000c0: 77e4 d1bc 74c9 a0bc 1c4e 92bd 299e 29bd
000000d0: b2c1 c9ba cd12 cf3d 6fc5 28bc 2836 22bc
000000e0: 4ff7 6ebc f03d 423c 024f 2f3d c2b5 643c
000000f0: 524c 143d c8e7 b3bc 2d9d 86bd 4d05 0d3d
00000100: 1e03 ffbb f1e8 3ebd ad59 1dbd bec2 9d3d
00000110: 0f6a 0fbd 3d50 2c3d 12a6 253d cb9c 36bc
00000120: cad5 99ba d436 d63c 180f 0a3d df67 58bc
00000130: d84e 16bd d2c5 6b3b e5f6 993b 7211 af3c
00000140: 254d b73c 2e90 26bc 3988 2abd fff0 4b3d
00000150: 889f 623d e3dc 5b3d 97c2 17bc ec90 6ebd
00000160: f145 0dbd b931 693d 5d94 313a c0f6 073d
00000170: bb5a 3ebd 5aa5 28bd ffc1 8d3b 366b 163c
00000180: 8aec 9cbc 9800 4c3c 830d 4bbd a1c9 073d
00000190: e7df 473d 1bce 2d3d e7f3 843d f01b 92bc
000001a0: e4c2 14bc 16a1 483d 9b96 5a3d 856f 93bc
000001b0: 2fa2 f23c 202c 923d 1946 48bd 1bcb f23a
000001c0: 62df 35bd 94cd 843d 149e 0cbd 6c9f f93b
000001d0: faa3 dd3c 0d28 363d 3e5a 3b3d 9829 1b3c
000001e0: 031d 9dbb a4b3 e33c b0b4 993d 9d62 9abb
000001f0: c02d 03bd ef6f ebbb e2fa 5cbd 4d18 66bd
00000200: 51d2 aebd 33dc 19bd f25b 9abc 550e d43d
00000210: b3a5 a13c f5ef f2bc f5fe ccbc 7c9d 833c
00000220: eee5 b1bc c385 343d 960a 163d 4029 0fbd
00000230: 86d9 233d bb0c 103d 2899 5dbd 68d0 ebbb
00000240: 3a5a 793d 11a8 b33d 128a d73c 7b97 1cbc
00000250: 10de 13bd 9a7d 8b3d c6ab 143d ccd0 063d
00000260: 29bd 09bc 6882 4dbd 82a9 113d 3515 93bc
00000270: ec49 82bc 817e 803c f305 cebc e730 24bd
00000280: 0666 a53c 9a0c 563c 7d5d 863d 22da 323d
00000290: 911b a33d e894 773a c07e e1bc 833f a3bd
000002a0: 0df6 ca3c d481 d4bc f130 ff3c 05c8 79bd
000002b0: 9e36 7ebc b250 8c3c 28b0 b0bc 047e 7e3c
000002c0: 912b f8bb cdd9 3d3d 6a31 513d 9658 c23d
000002d0: b7b5 193d 7a75 c23c b51e 413d 9bcd 7b3d
000002e0: daff e7bb 58ed 8abd 001b 8abd 7afc d63c
000002f0: 396f 743c 256f 26bd e901 213d f022 093b
00000300: c5a0 d53c 3203 a8bc 8c1b 3fbd 30a5 1e3d
00000310: 248d 5c3d 42f2 4e3d 189a 1ebd 52bf 4b3d
00000320: 3b20 1c3d eebf 47bb 1515 c13c ddbb 833c
00000330: 7f10 88bd 372f 3dbd 1b62 18bd 20d0 e53b
00000340: 1220 113d cf7e e1bc e334 1b3d 26da 0d3d
00000350: 5dd1 06bd c702 64bd 5d8d 8ebd e599 4cbd
00000360: 4faf dfbb ca85 a1bc 72ea e5bc be2b 0bbd
00000370: 5acd 573d ae67 a8bc 2354 a33c 8558 303d
00000380: 4058 443d 20f5 943c 51e5 44bd 196a 2cbd
00000390: bfac 52bc cf44 91bc ab6a 60bc 4bc7 563c
000003a0: e889 31bd cbed 45bc 1166 9c3b 8c9f 91bc
000003b0: c768 7cbd e612 f33c 3460 c83c 517c 4e3d
000003c0: 0370 3d3d 0ad5 bfbb eac6 4abd 5c7d aa3c
000003d0: e96b 5f3c acd8 aebc b073 46bc abce 173c
000003e0: 9cfe 8dbb 687b cebc 729e 0a3c c871 4abd
000003f0: 6184 dc3c 9d1a d0bc 4f07 6c3b acb8 923c
-0.043182436 -0.04674099 0.025821447 -0.0065004807 0.060742475 -0.03039069 0.008027408 0.026639879
0.06959142 -0.024773153 -0.028335238 0.034946423 0.06087522 0.017349558 -0.03615424 -0.0071897046
-0.11681377 -0.040508468 -0.038216762 0.026957419 -0.005605441 0.07301561 0.03189742 0.0068776794
0.06320789 -0.02899974 -0.017031575 -0.01585327 0.04014387 -0.06429805 -0.01021732 -0.022730151
-0.036800217 -0.038943123 0.006522737 0.038234454 0.0118194 -0.035710566 -0.033996068 0.021189313
-0.03319245 0.008008781 -0.052938133 0.03620761 0.052205794 -0.0019107574 0.053126585 0.04836735
-0.025621636 -0.01962731 -0.071438044 -0.0414106 -0.0015392809 0.10111008 -0.010300978 -0.009900607
-0.01458533 0.011855587 0.042799957 0.01395935 0.036205597 -0.021961108 -0.06572948 0.034428883
-0.007782354 -0.04660887 -0.0384156 0.0770316 -0.035013255 0.04206871 0.04044158 -0.011145781
-0.0011736688 0.026149191 0.0337058 -0.013208359 -0.036696285 0.0035976064 0.0046986216 0.021370623
0.022375653 -0.010166211 -0.04163382 0.04979038 0.055327922 0.05367745 -0.009262702 -0.058243677
-0.03449053 0.056932185 0.0006774122 0.033194304 -0.046473246 -0.041173317 0.0043261047 0.0091808345
-0.01915576 0.012451313 -0.049573433 0.033151273 0.048797514 0.042432886 0.06491833 -0.017835587
-0.009079669 0.04898175 0.053366285 -0.017997513 0.02961835 0.071373224 -0.048894975 0.0018523665
-0.044402488 0.064845234 -0.034330443 0.0076178815 0.02705573 0.04447179 0.04574036 0.009470366
-0.004794718 0.02779562 0.075051665 -0.0047114627 -0.032026052 -0.0071849744 -0.053950198 -0.05617552
-0.085362084 -0.037563514 -0.018842671 0.10354296 0.019732332 -0.029655436 -0.025023917 0.016066305
-0.021716084 0.044072878 0.03663119 -0.03495145 0.04000237 0.03516839 -0.05410114 -0.007196475
0.060877062 0.087722905 0.026310954 -0.0095576 -0.036100447 0.06811066 0.03629663 0.032913968
-0.008406916 -0.050173193 0.035562046 -0.017954448 -0.01590439 0.015685322 -0.025149321 -0.0400857
0.02019025 0.013064528 0.065608 0.04366506 0.07964242 0.0009444491 -0.02752626 -0.07971098
0.02477553 -0.025940813 0.031151267 -0.06098177 -0.015515951 0.017128322 -0.021568373 0.015532974
-0.007573553 0.04635029 0.051072516 0.09489553 0.037526812 0.023737658 0.047148425 0.061475378
-0.0070800604 -0.06783551 -0.06743431 0.026243437 0.014919096 -0.04063334 0.039308462 0.0020925365
0.026077637 -0.020509336 -0.04665713 0.038731754 0.05384554 0.050524004 -0.038721174 0.049743004
0.038116675 -0.003047939 0.023569623 0.016080791 -0.066437714 -0.046187606 -0.037202936 0.007013336
0.035430975 -0.027526287 0.037892234 0.03463187 -0.032914508 -0.05566671 -0.06960557 -0.049951453
-0.0068263183 -0.019717116 -0.028065894 -0.033977263 0.052686073 -0.02055725 0.01993758 0.04305317
0.047935724 0.018183291 -0.048070256 -0.04209337 -0.012858569 -0.017733006 -0.013697307 0.013109039
-0.04334441 -0.01208062 0.0047729095 -0.017776273 -0.06162336 0.029672097 0.024459936 0.050411526
0.0462494 -0.0058542537 -0.049506105 0.02081173 0.013636568 -0.021343552 -0.012112543 0.009265582
-0.0043333303 -0.025205329 0.008460628 -0.049424917 0.026918592 -0.025403315 0.0036015098 0.017910324

bias f4 [120]
00000000: 9ef7 16bd 328e 983c b7a3 843d 5339 35bd
00000010: 1867 a0bd 4449 1dbd 6e03 9dbc 9489 963c
00000020: 3472 53bc bfd0 0cbd a1fe 153d a21c 7abd
00000030: 88be e33c f44f 603d f132 33bc ff87 92bd
00000040: 3239 77bd 4ad3 78bd 774b aabc fe3c b9bc
00000050: bf04 ccbc 42e8 ffbc 0f45 3dbd 58ab 79bd
00000060: 5031 26bd fe42 dfbc e923 83bc ddcb 4b3d
00000070: 0a35 583d 7bf0 ffbc 9efd 11bb 9613 4c3c
00000080: 07b5 1f3d c29e 943c 7e8d 0f3d a77a 5b3d
00000090: ca49 833d ecbb 1bbd 11ce b13c 9982 49bd
000000a0: d01a 9dbc 3469 4bbd 5bb2 fdbc d49e 1abd
000000b0: f422 ac38 c662 c13c 252e d03c 547b 2ebd
000000c0: 2481 633d 0b8b 573c e9de dcbc a233 e03b
000000d0: 7b96 92bc f7db 5c3c d071 0b3d c57b 8739
000000e0: 2ea1 ddbc e7cb ca3c e09b e93c 7a35 443b
000000f0: e0ab d7bb 3063 403d 80e1 6cbd 647e 07bd
00000100: 01c7 a73c b759 5abd 7d3b 043d ef87 6dbb
00000110: d818 afbb 975d 3c3c a952 88bd 9c24 8abd
00000120: 6ff4 a83b caaa 2fbc b189 053d dca3 8cbc
00000130: 3968 69bd fa85 aa3b 0b27 42bc 44ef 4dbd
00000140: 8b09 acbc 779f ff3b 7c07 4c3b ec1a 53bc
00000150: 57a4 a1bc d016 ef3c 1100 733c 085e 02bd
00000160: fb2e eaba 76c6 a8bc 25fb 323d 7aec 80bd
00000170: 7383 c339 5fbf 8bbd e919 cdbc e9f0 f5bc
00000180: e388 373d c6a3 7cbd 5cd0 26bc a403 113d
00000190: acf5 743c a243 403d de1b 3a3d 2eaf b43c
000001a0: 3ae8 70bc 9ffd 023d 1377 9c3b a7a5 f3bc
000001b0: 1c46 17bc a384 973c 82a2 8a3d 9274 61ba
000001c0: 148f 55bd bc42 393c a8bb 883d 6988 a4bc
000001d0: 9967 73bd 801c 823c 2818 f6bc 36a0 65bd
-0.03685724 0.018622492 0.06476539 -0.04424412 -0.078321636 -0.03839995 -0.019166674 0.01837615
-0.012905646 -0.034378763 0.036619786 -0.061062463 0.027800813 0.05476375 -0.010937438 -0.071548454
-0.06035728 -0.060748376 -0.020787938 -0.022612091 -0.024904607 -0.031238679 -0.046208438 -0.06095442
-0.04057437 -0.027253624 -0.016008334 0.049754966 0.052784957 -0.0312426 -0.0022276412 0.0124558415
0.038991 0.018142108 0.035047047 0.053583767 0.064105585 -0.038021013 0.021704705 -0.049196813
-0.019177824 -0.049660876 -0.030968836 -0.037749127 8.20811e-05 0.02360667 0.025412628 -0.042598084
0.05554308 0.013155709 -0.02696176 0.0068420926 -0.01789402 0.013480178 0.034044087 0.00025841422
-0.027054396 0.024755431 0.02851671 0.00299391 -0.0065817684 0.046969593 -0.05783224 -0.03307952
0.020480635 -0.053308215 0.032283295 -0.0036244353 -0.005343538 0.011496923 -0.06656391 -0.06745264
0.005156092 -0.010721872 0.032602016 -0.017167978 -0.05698416 0.0052039595 -0.011850129 -0.05027701
-0.021000644 0.007800992 0.003113239 -0.012884837 -0.019731684 0.029185683 0.014831559 -0.031827956
-0.0017866784 -0.020602446 0.04369654 -0.06295104 0.00037291236 -0.068236105 -0.025036769 -0.030022101
0.04480828 -0.061679624 -0.010181513 0.035403863 0.014951151 0.0469395 0.045436732 0.022056188
-0.014703805 0.031980153 0.004774937 -0.029742075 -0.009233024 0.018495863 0.06769277 -0.0008600439
-0.052138403 0.011307415 0.066764176 -0.020084577 -0.05942497 0.01588273 -0.030040815 -0.056060992

weight f4 [80, 120]
00000000: cb9c f8bc 0fbf 0b3a bb70 25bd 5c7c 79bc
00000010: da50 27bd 6d39 243b 9c7a 41bd fca5 a93d
00000020: 41a1 c83d 528f c83d 477b f7bc 464c 51bd
00000030: 9b7e 873a fb96 97bd 365c e2bd 8188 4c3d
00000040: 70df 11bd edaa 41bd e921 a53d ea02 9a3d
00000050: 1428 a43d 21b6 8b3b 724a ca3b 86ab b63d
00000060: 4c01 1d3d 124a 043e e3ac 973d b0fe 493d
00000070: a7a5 4fbd 5fb7 ae3d c7ef c1bc 305b e5bd
00000080: 5edd 04bd b2e6 8abd 91e3 ba3d e4d1 dabc
00000090: 92c5 71bc 123a 343d 04e2 dabc 82cb 11bc
000000a0: cc39 3a3c 5dc9 393c 4762 b03d 5742 b73c
000000b0: dd09 00be c129 cebc 81b2 8e3d ef09 acbd
000000c0: 470a c53d 5c9a 983d 1819 c7bd cf6e 973c
000000d0: 8220 7d3d e148 69bd b290 85bd 27f7 853d
000000e0: 398d 57bd 8ada b5bd 2c7c 78bc 92f9 41bd
000000f0: 933f 43bd 422a c0bd 216c 6f3d 3f21 2a3d
00000100: c296 b93d c79e f6bc cb71 edbc ff6d 20bc
00000110: 27fc 703d d900 bcbd 461a 323d c180 be3c
00000120: 6db3 9c3d d425 91bb 573a 72ba aed7 84bd
00000130: add6 bb3d 1318 ff3b 9ab4 46bd 841c a0bd
00000140: ebed 62bd 26bc b73d 55e8 d2bc d4d2 473d
00000150: 07fd 983d 541b da3d 9be3 cebd 0c0a e9bd
00000160: f3b5 b9bd 34ed 6fbd 0c42 f139 b5c9 54bd
00000170: d497 2b3d 5863 753d 570b 9fbc 812a 713d
00000180: b144 903d c9cd 113d f273 1abe 4a31 783d
00000190: 1a2f 92bc 3b5b 833d 9aa2 6dbd b4c1 c2bc
000001a0: 09f7 52bd 35fe 43bd e920 daba 534e 69bd
000001b0: 4ebd a93d c191 2d3c e7aa c83d 58ee a9bd
000001c0: aed4 d1bd ef99 97bd 49bb 353d 4916 623c
000001d0: 15fb 263d b31c 573d 09c1 09bd cc3d c43d
000001e0: 0cf2 55bc c277 db3c 9427 9dbd 2d69 5c3d
000001f0: fa1e 46bc 789d a2bd afcb 653d 350c 963d
00000200: e121 a7bc f88e bc3c 73c8 a9bd a6b5 0cbd
00000210: 1733 18bd 6522 67bd 69c3 4f3d 38c3 babd
00000220: e42c 2abd 4804 6b3c 6b1d e63d e8c6 a33c
00000230: d2a7 db3b 7ca2 6e3d 2537 a63d 0473 3ebc
00000240: b092 763d 2fb6 c3bd 6a60 18bd 6680 a2bb
00000250: 17a0 bf3c aea6 583d 68d5 863d 4c48 53bc
00000260: 1594 063d c7ef 59bd 9191 7e3d cfd5 7c3d
00000270: 2c0e b03d e874 3dbd bd6a 8d3d b996 4ebd
00000280: 3026 ecbd 22d5 383d f5df 41bd 8201 49bd
00000290: 888e 023e 5a27 2e3c ccfc 7c3d eac7 063d
000002a0: 4b28 d03d ff53 0b3d d358 b73d 4349 b1bd
000002b0: f95a b9bd da68 45bd 208a a2ba 1176 323a
000002c0: 9d6f af39 1b15 a839 b2ec bfbb 663f e8bd
000002d0: 31c1 ec3d ef10 953c 7dee cdbd acab 653d
000002e0: 5e02 db3d d44e 44bd 4163 1e3d 63f8 3c39
000002f0: b610 25bd d7d6 c7bc 9c07 a43d 5227 e7bd
00000300: a78b c13d 608f 223d 1550 a1bc dee0 0a3c
00000310: fa42 b5bd 85ba b63b 54d6 62bd adc7 07bd
00000320: 99b9 b13d 306c 3d3c 60bf 06be fdfc cf3c
00000330: 3a8c 5c3d 8091 ad3c 7eb8 1f3d 68c9 8d3a
00000340: 6406 e0bc cc7b 7c3c 8b4d 98bc f364 093c
00000350: 776e 2d3d a1a7 903d 7ec3 d4bc de43 8e3c
00000360: d9e8 d63a 0048 bdbd 1e5b b3bd 0c9d caba
00000370: 35e9 53bd fac1 3cbd ac2c 5f3c 95bd 3dbd
00000380: 597a a6bd 12e1 683d 3900 d6ba 87d1 d5bb
00000390: 322c 01bd cd96 c6bd 362a 633d dce3 4fbd
000003a0: 874b a5bd a9cb 90bc adf3 68bd 3077 9a3d
000003b0: 9de8 183b 0cb9 7e3d da3d 46bd 1a51 f13d
000003c0: 9faa c43d 7f7f 343c 0e56 993d 62da febc
000003d0: e1f2 2ebd 6d6c d8bd 2136 49bd 2bc0 37bd
000003e0: ef71 823d e5f5 1a3d aa32 013d 80cd f2bc
000003f0: 7112 823c 4504 3ebd 4767 913d 2c22 1b3d
-0.030348202 0.0005330899 -0.04039071 -0.0152274035 -0.04084859 0.0025058642 -0.04723607 0.08283612
0.09796382 0.09792961 -0.03021015 -0.05109813 0.0010337414 -0.07401844 -0.11052744 0.049934868
-0.035613477 -0.04728215 0.080631085 0.07520087 0.08015457 0.004263655 0.0061734254 0.08919434
0.038331315 0.1291888 0.074060224 0.049315155 -0.050695088 0.08531069 -0.023673905 -0.11199033
-0.032437675 -0.06782283 0.09125436 -0.026711412 -0.014756577 0.044000693 -0.0267191 -0.008898618
0.011366319 0.011339513 0.08612495 0.0223705 -0.12503763 -0.025166394 0.06967641 -0.08400332
0.09621101 0.07451317 -0.09721583 0.018485455 0.06179858 -0.05695427 -0.06521739 0.06541281
-0.052624915 -0.08879574 -0.015166324 -0.04735715 -0.04766805 -0.0938306 0.05845273 0.041535612
0.09061958 -0.030105008 -0.028984925 -0.00979185 0.05883422 -0.09179849 0.043482088 0.023254754
0.0765141 -0.0044295583 -0.00092402607 -0.0648645 0.091718055 0.0077848523 -0.04851208 -0.07817939
-0.055402678 0.08971433 -0.02574555 0.048785046 0.07470136 0.10649744 -0.10102006 -0.113788694
-0.09067907 -0.058575824 0.0004601631 -0.051950175 0.04189284 0.059909195 -0.019414587 0.058878426
0.07044352 0.035596643 -0.15083292 0.06059388 -0.017844725 0.06413885 -0.058016397 -0.023774005
-0.051505122 -0.047849853 -0.0016641888 -0.05695946 0.0828806 0.0105938325 0.09798222 -0.082974136
-0.102456436 -0.074024074 0.044368062 0.0137992585 0.040766794 0.052517604 -0.03363136 0.09582099
-0.013058197 0.026790503 -0.076735646 0.05381124 -0.012092346 -0.07940191 0.05610245 0.07326547
-0.020401897 0.023017392 -0.08290186 -0.03435292 -0.037158098 -0.056429286 0.050723467 -0.09119266
-0.041546717 0.014344282 0.1123608 0.019992307 0.0067033553 0.058260426 0.08115987 -0.011624102
0.060198486 -0.09556233 -0.037201323 -0.004959154 0.023391766 0.052893333 0.06583673 -0.012895655
0.032856066 -0.053207185 0.06215054 0.06172734 0.08596453 -0.04625407 0.06905124 -0.05043671
-0.11530721 0.045125134 -0.047332723 -0.049073704 0.12749684 0.010629499 0.061764523 0.032905497
0.10163935 0.03401565 0.08952489 -0.08656552 -0.09050555 -0.048195697 -0.0012400784 0.00068077544
0.0003346176 0.00032059182 -0.0058570737 -0.11340217 0.11560286 0.018196551 -0.10055254 0.056071922
0.10693811 -0.04792674 0.038668875 0.00018021608 -0.04029914 -0.024394436 0.08009264 -0.11286797
0.09450465 0.039687514 -0.019691506 0.008476464 -0.088506654 0.005576434 -0.05538018 -0.03314941
0.08677978 0.011561438 -0.13158941 0.025389189 0.053844668 0.021187544 0.038994305 0.001081747
-0.027346797 0.015410375 -0.018591663 0.008385885 0.042341676 0.07063223 -0.025972124 0.017366346
0.0016396298 -0.092422485 -0.087576136 -0.001545818 -0.051736075 -0.046083428 0.01362149 -0.046323378
-0.08128805 0.05685527 -0.0016326971 -0.0065252217 -0.03153629 -0.09696732 0.055460177 -0.050754413
-0.08071046 -0.017675238 -0.056873012 0.075422645 0.0023332008 0.062188193 -0.04839883 0.11783047
0.09602856 0.011016726 0.07487117 -0.031109992 -0.042712096 -0.105675556 -0.049123887 -0.044861
0.06369387 0.03783216 0.031542458 -0.029639006 0.015877934 -0.04639079 0.07099777 0.037874386

bias f4 [80]
00000000: 4fdc 46bb d79c 723c aff6 36bc 879f 7b3b
00000010: c233 5dbc dfa3 903d 3d42 09bd 0d0e 8abd
00000020: 4d01 923b d1cc e43b 7fe7 62bd 0cc1 9d3d
00000030: abd2 40bc 634d bf3c 735b a7bd f1cd b83c
00000040: 39ba 713d 174b 303d 3bb5 b0bd 13cb 88bd
00000050: 8be2 5cbd 79cd a73d 4014 a4bc cc5c 7c3d
00000060: 2300 cbbb e22a 7dbd 6900 8ebd 81d8 7ebd
00000070: d941 2bbd 3f74 923c 0ea8 11ba 9ec6 b0bd
00000080: 09dd 8c3d 7992 93bd 1d74 8d3d aad9 833d
00000090: 0aa6 13bd 1736 ffbc 1900 8c3d bff6 8bbd
000000a0: eb90 443d 1be3 873d 2493 13bd e867 a6bd
000000b0: d540 eabb 74c7 233b cf05 7a3d a803 08bd
000000c0: a7ab 1abd e767 92bd db5e 743d c8b9 3f3d
000000d0: e3b3 5cbb 6f81 8c3d 8c9c babc f9cd 85bd
000000e0: a489 82bd 47f4 4a3d f46f a43c a80b a63d
000000f0: c931 9f3b c87c 4bbd 5321 00b8 8872 b13c
00000100: 1d41 82bd 9ef3 a0bd 42e4 b8bd 2c53 e2bc
00000110: 6a57 863d db7d bc3d dfe5 183d b303 8b3d
00000120: 3b6a babd 07ef 03bd 9744 d43c 3ff6 abbc
00000130: f348 d73d 24ff 0f3c 9f2a b13d adac 143d
-0.0030343716 0.014807901 -0.011167212 0.0038394646 -0.01350111 0.07062506 -0.033510435 -0.06740961
0.0044557215 0.006982424 -0.055396553 0.077028364 -0.011768977 0.02335233 -0.081717394 0.022559138
0.059015486 0.04304036 -0.08628317 -0.06679358 -0.053926986 0.08193488 -0.020029187 0.061611935
-0.0061950847 -0.061808474 -0.06933672 -0.062218193 -0.041810844 0.017877696 -0.0005556353 -0.08631633
0.068780966 -0.07205672 0.069069125 0.064380005 -0.03604702 -0.031153722 0.06835956 -0.068341725
0.047989767 0.06635114 -0.036028996 -0.08125287 -0.007148842 0.002499071 0.061040696 -0.033206612
-0.037761357 -0.07148724 0.059660774 0.046808034 -0.0033676557 0.06860625 -0.022779725 -0.06533427
-0.06373909 0.049549367 0.020072915 0.08107692 0.00485823 -0.049679548 -3.0548614e-05 0.021661058
-0.063600756 -0.07858966 -0.09027912 -0.02762755 0.06559642 0.092036925 0.037328597 0.06787815
-0.09102293 -0.032210376 0.025911612 -0.020991443 0.10511961 0.008788858 0.086507075 0.03629749

weight f4 [10, 80]
00000000: 99a9 873c b21c 89bd ac38 80bd c57b 16bd
00000010: 1afe 5ebd c4a9 39bd 7096 863d b896 e13c
00000020: a29e d8bd 2655 14bd 3c0a 19bd 10c8 ca3d
00000030: 8f00 43bd b343 82bd 478b 7cbd e81f f5bd
00000040: ab59 2f3d acb1 a43d 764b f23c 58f5 823d
00000050: ca7a 0bbd 8a4a f1bd c8b3 c4bd 1d82 c2bb
00000060: c3a1 9ebd ada4 a93c 9d6f 473c a0d7 f23c
00000070: 03be a8bb a457 243d 98cc eebd 48b8 09bd
00000080: adb0 44bd 7bd3 bcbd f7f7 84bd 3cd7 87bd
00000090: 132c 3a3d 1e15 96bd 8460 fabd 4ca8 8b3d
000000a0: dd7a 813d fa97 1ebe f940 77bd 3ef9 38bd
000000b0: 5a30 8b3a f17c e73c 8cc8 1cbc 0144 c2bd
000000c0: 6ce1 013b f027 1e3b 9ffa 02be 0943 aabd
000000d0: 696e 6ebd a45a d73d 6e3b 4e3c 5dac 3cbd
000000e0: c785 b5bd ff2b 9ebd 2488 9e3d 8e24 d23d
000000f0: a994 95bd 8260 b9bd 3dc2 633d 169c 013c
00000100: 7cb4 f3bc 1280 153d 095c fc3b 6cad 0abd
00000110: d025 b3bd 121e bcbd c3fe 69bd da61 32bd
00000120: 4393 0abd 4c24 5c3a 8db3 c3bd 77a4 283d
00000130: 32dc bf3c 458d 37bd d5af c9b8 82f8 a4bc
00000140: 11e6 fcbd dd53 533d 490c 2ebe e033 783d
00000150: c805 6d3d 88ae 393d c587 0b3d 86c3 2f3c
00000160: a308 d1bd 2365 50bd 955f ecbd 62e0 813b
00000170: 9ee0 a43d 337e a43d d02b 9ebd 9c7d 823d
00000180: 013d 81bd 502a b3bc 6258 8dbd 022d 04be
00000190: 32f1 06be c05a d43d 4de9 0dbe 56b5 1cbd
000001a0: 233d 9d3c 9b9d adbd ba3f 793d ad84 04be
000001b0: c519 b1bc be01 c8ba 8d46 c6bd e56a a1bd
000001c0: 52ce e1bd 32ca ab3c 9735 8abd bfb7 9e3d
000001d0: 28c4 ff3b 5058 fbbd 7c1e dabd 465b a6bc
000001e0: 2038 dcbd 64ab 3fbc 1cb5 3e3d bc6a 8d3d
000001f0: 2921 e6bd bd7a 883d 34fd 093d e52c 0d3d
00000200: 7c26 d0bd 32f3 bbbd 987f 633c efae 8e3d
00000210: 9a94 12bb 7c50 0a3c f847 9c3d 9a31 b3bd
00000220: ae3f c83d 323d 12bd c58a 5c3d 9dc4 bd3d
00000230: 59a0 623c 169b bbbd 521d acbb 9c75 063d
00000240: a1b3 6cbd 8ab4 cc3c 3b3e b03d 9893 47bd
00000250: 115e e8bb 802b 29bd b5e6 b53a 4fdb 50bd
00000260: 5983 ea3c 87de a5bd ffaf 023e 58fa 6ebd
00000270: 0acf e03c 5fc4 7ebd b158 0ebb 5ad4 c3bd
00000280: e2d5 afbd b652 e2bd f589 c6bd 5377 85bc
00000290: 22b0 63bd 65e7 ce3d 8d97 ebbd 492c e83d
000002a0: 9c02 633d 76a3 cc3d 42b0 863d 3422 c2bd
000002b0: a0c9 f73c ef56 ebbb 7d1a 68bd 6aa9 febd
000002c0: 858e 07be 8147 b23c 63a4 8f3d f3f0 e0bd
000002d0: cde5 083d d505 363d 3696 f7bd eb57 a3bd
000002e0: ede7 02bb 32e0 d3bd 7abd fdbd 54b6 9dbb
000002f0: f823 d7bd 3230 dfbd 3a59 bd3d c71b 1a3d
00000300: e10c 723d 7f1b ffbd 5628 c5bd 28bc ebbc
00000310: cf00 613d abcf bdbd 45e6 b7bd 22e6 233d
00000320: 5694 ca3d 5436 94bd 27e3 473d 296f 9d3d
00000330: 417f 743d b687 1d3c 0b33 813c ff48 ffbd
00000340: 0b04 a83c c06f c6bc f16d c4bc fd95 4d3d
00000350: 9571 9bbc f456 0d3d dc41 96bd 7585 f0bd
00000360: c29e d1bc 1f3e e4bd 6228 a73d 1f7d 9bba
00000370: 1f13 9e3d bb61 093e a7f4 a8bd df1d 713d
00000380: cad8 d2bd 76dc 77bd b75e c1bd 004a e03d
00000390: 6d22 10be 52cf d9bd eefc 073d 2e1d ad3c
000003a0: 8305 a2bd 4a4d 853d a93d 253d b05c 72bc
000003b0: e95e 8fbd 0ab8 cdbd 2959 8a3d bb2b 923d
000003c0: 382e 083d b635 78bd 1201 f4bd 2646 4a3d
000003d0: ac64 83bd 99dd 8ebd ab61 ebbd b06d 323d
000003e0: 947c 1d3c 51f6 09be 97f4 31bd a2bb ca3d
000003f0: 5d95 afbd e53a febc 4c3a abbd 39d5 0a3b
0.016560363 -0.06694926 -0.06260809 -0.03673913 -0.05444155 -0.045327917 0.065716624 0.027537689
-0.10577132 -0.036214016 -0.037363276 0.0990144 -0.047607955 -0.06360569 -0.061656263 -0.11968976
0.042810123 0.08041701 0.029576998 0.06394452 -0.034052648 -0.11781795 -0.09604603 -0.005935921
-0.07745697 0.020708406 0.012172607 0.029643834 -0.0051496043 0.040122643 -0.11660117 -0.03362301
-0.048020054 -0.09220024 -0.06492608 -0.066328496 0.04545219 -0.073282465 -0.1222544 0.068192095
0.063222624 -0.15487662 -0.060364697 -0.04515957 0.0010619268 0.028257819 -0.0095692985 -0.09485627
0.00198182 0.0024132691 -0.12790917 -0.08313567 -0.058210764 0.10515335 0.012587411 -0.046062816
-0.08863407 -0.07723235 0.077408105 0.102608785 -0.07303745 -0.090516105 0.055605162 0.007910749
-0.029749148 0.03649909 0.007701401 -0.033856794 -0.087474465 -0.09185423 -0.057127725 -0.04355035
-0.033831846 0.00083977426 -0.09555731 0.04117247 0.023420427 -0.04481246 -9.617178e-05 -0.020138029
-0.12348569 0.05159365 -0.16996874 0.060596347 0.05786684 0.04533246 0.034065027 0.010727769
-0.102067254 -0.0508777 -0.11541668 0.003963516 0.08050655 0.08031883 -0.077232 0.06371614
-0.06310464 -0.021870762 -0.06901623 -0.12907794 -0.13177946 0.10368872 -0.13858528 -0.038258873
0.019194191 -0.084773265 0.06085179 -0.12941237 -0.021618733 -0.0015259308 -0.09681425 -0.07881717
-0.110256806 0.020970438 -0.06748503 0.077498905 0.007805366 -0.12272704 -0.10650346 -0.020307194
-0.107528925 -0.011698578 0.046559438 0.069051236 -0.112367935 0.066640355 0.03368874 0.034466643
-0.1016359 -0.09177245 0.013885401 0.0696696 -0.0022366405 0.0084420405 0.076309144 -0.08749695
0.09777771 -0.03570289 0.05384328 0.09266017 0.013832175 -0.0916044 -0.0052525187 0.032827005
-0.057788495 0.024988431 0.086056195 -0.04872474 -0.0070912917 -0.04130125 0.001387796 -0.0509904
0.028627085 -0.08099084 0.1276245 -0.058344215 0.027442474 -0.062198993 -0.0021720345 -0.09561987
-0.08585717 -0.11050932 -0.09694282 -0.01629225 -0.055587895 0.10102729 -0.115035154 0.11336572
0.05542241 0.09992115 0.06576587 -0.0947918 0.03024751 -0.007181994 -0.056665886 -0.12434657
-0.1323796 0.021762611 0.07013776 -0.109834574 0.03342228 0.044439156 -0.12089197 -0.079757534
-0.0019974664 -0.10345496 -0.123896554 -0.004812995 -0.10504907 -0.108978644 0.09245534 0.037624147
0.059094314 -0.12456416 -0.09626834 -0.028776243 0.05493241 -0.09268125 -0.08979467 0.040014394
0.09891574 -0.07236925 0.048800614 0.07687218 0.05969167 0.009614876 0.01577141 -0.12465095
0.02050974 -0.024223208 -0.023978205 0.050191868 -0.018975059 0.034506753 -0.073367804 -0.11744205
-0.025588397 -0.11144661 0.08161999 -0.001186285 0.07718491 0.13416187 -0.08249789 0.058866378
-0.102952555 -0.060512982 -0.094418935 0.109516144 -0.14075632 -0.10635246 0.033200197 0.021132078
-0.079112075 0.06508882 0.040342007 -0.014792606 -0.070005246 -0.10044868 0.06755287 0.07137247
0.033247203 -0.060598098 -0.11914267 0.049383305 -0.06415686 -0.0697586 -0.11493238 0.043561637
0.009612221 -0.13472869 -0.04344615 0.09899069 -0.08573411 -0.031033942 -0.083607286 0.002118422

bias f4 [10]
00000000: a4a4 983d 86da 15bc 06ce a0bd b533 943d
00000010: 8a9f 453d fc19 a53c 0efb ae39 6850 52bc
00000020: f80e bd3c cbe8 a43d
0.07453278 -0.009146338 -0.07851796 0.07236425 0.04824785 0.020153992 0.00033374917 -0.012836553
0.023078427 0.08052214
